arpaagv/NeuralNet_2000_2023_09_28_trained_model.pth (torch, 4511 bytes, 3 tensors)

fc1.weight f4 [64, 8]
00000000: d0b3 30be 3b76 963e 5a0b a33e fdb6 54be
00000010: 3581 a93e 1afe 3b3e 0546 9b3e bdfb 093e
00000020: 1153 423e e86f 6cbc b6e9 973e 2ab6 ad3d
00000030: 58bf 1bbe 8576 063e 6f58 14be b5fa d6bb
00000040: 5280 15be 1ff6 663e 7e67 8ebe 5b24 29be
00000050: 03ba d0bd 47f5 5fbe 24fc e43c def8 b4be
00000060: b17f a33e 5517 60be 5753 903e 4145 e33d
00000070: 6990 bfbd c195 a93e faf0 c63d d695 bd3e
00000080: 7d9a 043d ecfe f1bd c5c6 b43d 1441 d2bd
00000090: 7dff 0f3e 85d5 9d3e 5a15 493e be65 25be
000000a0: 9e4f 5b3e 7802 d03d 22e4 3b3e 3a6a 47be
000000b0: 6c95 acbe 1e91 cabd b985 7cbe 4611 a43e
000000c0: 6796 bb3d f5aa 3d3e 5ed7 be3d 8be3 453b
000000d0: 84f0 8c3e 9efe 59be cfce 173d 85e2 5dbe
000000e0: 1d49 e13d 0680 f7bd 5d14 e13d e3f9 93bd
000000f0: 9dcb 963e 14e4 54be 6c20 57be b26b 56be
00000100: c22d ac3e e40c 1c3e 2e0b b43e 03d1 8bbe
00000110: 964e adbe 5efc 7cbe de55 5fbe c450 2b3e
00000120: 8852 f83d a28c aa3e bc9a 4dbe 80d2 6ebe
00000130: 60a6 503e 8526 c3bd 9ba3 643e bfa0 68bd
00000140: e3ed 463e 24e1 90be 233b 3ebe 8dde c93d
00000150: e9a0 873d 07d0 cabd fc6a 4e3e 5261 6c3e
00000160: 6632 85be 5728 4dbe b8b7 a33e 0345 00be
00000170: 4ed6 04be 09ab b3be 4a7c 57be 2d4e a53d
00000180: 2158 71bd de6a 96be 3a2a a43b 9d6f 82be
00000190: fded 9ebe 4141 66be 5814 a9be 5b6f 7bbe
000001a0: 1af2 a83e 2217 243d 33aa c23d 0b75 b2be
000001b0: ed8c 80be e445 0bbe 6539 f23c 39fc a8be
000001c0: d4c1 26be e359 6dbe 2413 86bb 1ff6 10be
000001d0: 6fea 0bbd 61c4 81be 4f28 84be c189 5fbe
000001e0: 679c 08be 4c82 82be 6004 903e d8d6 83bd
000001f0: 415e 993e 6cae 0e3e d492 99be 21fe 853e
00000200: 3a83 bbbd 0bf3 dabd b76a 96be 73ee adbe
00000210: b71d e73d 0fc6 46bd a0ae 203e 223a 8abe
00000220: 9978 8d3e b767 76be 4dcd 4ebd f3f5 bd3d
00000230: 6134 4d3e 53da 9e3e 1f1a b03e 96be 84be
00000240: 8f8e af3d c9e7 1ebe 635c 28bd abe6 88be
00000250: 32c9 a33e df21 86be 988b 3e3e 9ca6 f83d
00000260: 47bf 043e b95b 35be ff47 af3e f620 c63d
00000270: b783 753d f061 98be 821c 2b3e d61f 19bd
00000280: c215 24be eb53 9c3e fbec a43d 702c 46be
00000290: 6de7 34be 0bd4 6dbc e979 4b3e c189 b4bd
000002a0: 3bd7 47be a2b3 b4bd 1ece 86be 321a 123e
000002b0: 666f 913e 4e70 9abe 2d31 d63d e099 543e
000002c0: 1aa8 7f3d 0845 02be 4ccf 3a3e 55aa 3c3e
000002d0: ea82 053e 5081 81bd 038c c2bd cd1e 163d
000002e0: 1afe 8ebd 26da ecbd fe93 563e 08e8 923e
000002f0: 9699 35bd ba95 babd 3dd2 e8bb 2f69 0fbd
00000300: 4437 8f3d d9fa 9e3d 78de a7be 34eb 11be
00000310: eb56 8e3e 56de f13d 104b 0bbd 3d5c 6abe
00000320: c5e9 5ebe 8ad3 a7be 4b84 eebd fe78 e83d
00000330: 7f9b 603e 6e9f 1a3e 7436 a3be 4d9a 62be
00000340: f733 d5bd d657 cb3e 3de9 ad3a 3150 acbd
00000350: 30f8 073e 9591 51bd d9a9 70be a99e 9b3e
00000360: fedb 1cbe 01c4 04bd 50ab b2be 4d00 843e
00000370: 6027 943e 574f 2f3e c465 65be 5efd a2be
00000380: 9c3b 93be 775e b23e 6f10 373e 099d b33e
00000390: c4e1 553e c287 523e 4826 1f3d 0a46 3abe
000003a0: e738 9dbe d1ee b9be 3d2f 103e 354e 40be
000003b0: a86f a7bd bcb0 71be a572 aabd 3fc9 8abe
000003c0: a0c9 6fbe 7512 d83d dc1e e5bd 3ea3 533e
000003d0: 4cdd f6bd 59c3 8cbe d230 91bd b7d3 3dbe
000003e0: c1ba bdbd 80a6 a2be a8cb 5d3e dadf 69be
000003f0: a9b9 493e e5d4 373e 8c52 8e3e da2e 81be
-0.17256093 0.29387078 0.31844598 -0.2077293 0.3310639 0.18358651 0.30326858 0.13474937
0.18977 -0.014430977 0.29670495 0.08482011 -0.1520971 0.13131149 -0.1448686 -0.0065606483
-0.14599732 0.22554825 -0.27813333 -0.16517775 -0.10191729 -0.2187091 0.027952261 -0.3534612
0.31933358 -0.218839 0.28188583 0.110971935 -0.09353716 0.33122066 0.097139314 0.37028378
0.032373894 -0.118162006 0.08826975 -0.10266319 0.14062305 0.30826965 0.19637051 -0.16152093
0.2141709 0.10156721 0.18348745 -0.19474116 -0.3370775 -0.0989096 -0.24660386 0.3204443
0.09159546 0.18522246 0.09318422 0.003019544 0.2752725 -0.21288535 0.037062462 -0.21668442
0.110002734 -0.120849654 0.10990212 -0.072253965 0.2945222 -0.2079013 -0.21008462 -0.2093952
0.3362866 0.15239292 0.3516478 -0.273079 -0.3384902 -0.24705645 -0.218101 0.16730028
0.121251166 0.3331042 -0.20078558 -0.23322487 0.20375967 -0.095288314 0.22328036 -0.056793924
0.19426684 -0.2829677 -0.18577246 0.09856901 0.06622488 -0.09902959 0.20157999 0.23084
-0.26015013 -0.2003492 0.31976104 -0.12526326 -0.12972376 -0.35091427 -0.21043506 0.080715515
-0.058921937 -0.29378408 0.0050099166 -0.2547578 -0.31040946 -0.2248583 -0.33023334 -0.24554197
0.3299721 0.040061124 0.09505119 -0.34854922 -0.25107518 -0.1360088 0.029568383 -0.3300493
-0.16284877 -0.2317882 -0.004091637 -0.14156388 -0.03415912 -0.25345138 -0.25812003 -0.21829893
-0.13340913 -0.25490034 0.28128338 -0.064374626 0.29954723 0.13933724 -0.29994833 0.26170447
-0.09155889 -0.10690888 -0.29378292 -0.33970985 0.112849645 -0.048528727 0.15691614 -0.26997477
0.2763107 -0.24063002 -0.05048876 0.09275427 0.20039512 0.31025943 0.3439493 -0.25926656
0.08572113 -0.15518107 -0.04110373 -0.26738486 0.31989437 -0.26197717 0.18607938 0.12141153
0.12963592 -0.1771077 0.34234616 0.096742555 0.059940066 -0.2976222 0.16710094 -0.037383877
-0.16023925 0.30532774 0.08053013 -0.19352889 -0.17666407 -0.014515887 0.19870724 -0.08815337
-0.19515698 -0.08823325 -0.2632913 0.14267805 0.28405303 -0.30163807 0.10458598 0.20761824
0.062416174 -0.12721646 0.1824314 0.18424352 0.13038221 -0.063234925 -0.09499361 0.036650468
-0.0698206 -0.11565046 0.20954892 0.2869265 -0.044335924 -0.09110589 -0.0071051405 -0.03501242
0.06992963 0.07762689 -0.32786918 -0.14249879 0.27800688 0.11809985 -0.034007132 -0.22886749
-0.21768863 -0.3277858 -0.11646327 0.113512024 0.21934317 0.1509988 -0.31877482 -0.22129174
-0.10410302 0.3971545 0.0013268363 -0.08413733 0.1327827 -0.05116423 -0.23502292 0.30394486
-0.15318295 -0.032413486 -0.34896326 0.2578148 0.2893629 0.1712011 -0.22402102 -0.3183393
-0.28756416 0.34837696 0.17877363 0.35080746 0.20886904 0.205596 0.038854867 -0.1819078
-0.30707476 -0.36315015 0.1408052 -0.18779834 -0.081755936 -0.23602575 -0.08322648 -0.27106664
-0.23416758 0.105503954 -0.111875266 0.2066774 -0.12053928 -0.27492788 -0.0708939 -0.18537794
-0.09264136 -0.31767654 0.2165972 -0.22839299 0.1969973 0.17952307 0.27797353 -0.25231057

fc1.bias f4 [64]
00000000: 385a 323f 8f8f 043e cbc2 77bd 3f5d 233f
00000010: eeb9 4dbd 00de b13e c788 043f d1c5 9dbe
00000020: e773 683e 45a4 ab3e 3aae 5f3d db2d e83c
00000030: 6e3f 893c 084e 39be ca8b 94bd 8235 023f
00000040: 88c7 a23e 8db3 6b3d 1220 aabe da1a 903d
00000050: 2234 78be 4d87 c83e 260c 5ebe e1fb 76bd
00000060: dc8c c8bd 4bfd 053d 4030 703f 0048 0e3e
00000070: 6b62 243f 6c93 3d3e 5160 833e f024 e6bd
00000080: f95d 81bd 0f98 b03e f0c7 d5bd b941 c13d
00000090: 2f97 b6bd 5e32 75be 5074 043f 0ed8 873d
000000a0: f7a3 6e3d 6966 da3e a364 7a3e e385 263f
000000b0: 7d70 483d f4a6 9dbe e5d3 80be 634b 4fbe
000000c0: def4 9dbe b0ef 38be 4c6a a7be 29b7 a7be
000000d0: bef8 57be 76a6 b2be 1b05 79be 0c13 b43d
000000e0: 0fb7 ea3e dd6d dbbd 8065 a3bd c25d d53d
000000f0: b8fb d8bc 6db9 26be 2417 6f3e d13e a2be
0.6966891 0.12945388 -0.060488503 0.6381416 -0.050226144 0.34739685 0.51771206 -0.30814984
0.22700463 0.33523765 0.054609515 0.028342178 0.016753878 -0.18096173 -0.07253225 0.50862896
0.31792855 0.05754428 -0.33227593 0.070363715 -0.24238637 0.39165726 -0.21684322 -0.060298804
-0.09792492 0.032712262 0.93823624 0.13894653 0.64212674 0.18513268 0.2565942 -0.11237514
-0.06316752 0.34491012 -0.10438526 0.09436364 -0.08915555 -0.23944995 0.5173998 0.06633006
0.058261838 0.42656258 0.24452452 0.65048045 0.048935402 -0.30791438 -0.25161663 -0.20243602
-0.3085088 -0.18060184 -0.32698286 -0.32756928 -0.21090981 -0.34892625 -0.24318354 0.087926954
0.45842788 -0.10714314 -0.07978344 0.104182735 -0.026487216 -0.16281672 0.23348671 -0.3168855

fc2.weight f4 [1, 64]
00000000: 913e 393f ebac 633e 1836 90bd 7a0b 2c3f
00000010: 25cd 533b 58a7 803e 93f6 d93e 8157 fabc
00000020: b556 2d3e 1779 c03e 186c ee3c 55a5 e7bd
00000030: 30c0 82be a27d 2cbe 1266 49be ff41 c83e
00000040: 2b0a 303e 4345 2c3e 6738 8abd 5390 183e
00000050: c5a3 f1bd 8f45 853e a981 49bc 6953 80bd
00000060: de56 54bd afcc 95bd 9dbc 693f f125 2d3e
00000070: f214 303f d043 1ebe ee86 4f3d 7199 d43d
00000080: a3b7 993d 19fa 973e 6f80 08be cbcf c3bd
00000090: 7ca4 09be 6cb8 843d b7b4 263f 2180 3a3d
000000a0: 6a1c 4ebe 8f8b 673e 5d6b 153d 7962 183f
000000b0: 8779 d03d 7bf8 0d3d 68be 2dbe da10 aa3d
000000c0: b5d8 0cbe 4e80 f3bd 67c5 bc3c f556 a73c
000000d0: bb6d 75bd e413 50bd 9790 aebd d710 87bd
000000e0: 56f2 b33e adc4 3f3c ada4 aa3d db18 c9bd
000000f0: a5f8 af3e 9375 a83d bf39 123e 6bc7 66be
0.72361094 0.22233932 -0.070415676 0.6720501 0.003231832 0.25127673 0.42570934 -0.030559303
0.16927607 0.37592384 0.029104277 -0.113108315 -0.25537252 -0.168448 -0.19667843 0.3911285
0.17191379 0.16823296 -0.06749039 0.14898805 -0.11798815 0.26029631 -0.01229898 -0.06265909
-0.051840656 -0.07314431 0.91303426 0.16909005 0.6878196 -0.15455556 0.05066579 0.10380829
0.07505729 0.29682997 -0.13330244 -0.09561118 -0.13441652 0.06480488 0.651195 0.04553235
-0.20128027 0.22611831 0.036479343 0.5952526 0.101794295 0.034660798 -0.16967165 0.083039954
-0.13754542 -0.118897066 0.023043348 0.020427207 -0.0599191 -0.05080022 -0.08523672 -0.06595009
0.35145825 0.011704606 0.08332191 -0.09819194 0.34369388 0.082255505 0.14279841 -0.2253701
